checkpoint.pth (torch_old, 167517 bytes, 7 tensors)

actionValueNet.act_fc1.weight f4 [512, 37]
000000 a3 f6 d8 3d e8 68 8c 3c 60 af 60 be f6 15 0b be
       0.10593917 0.017139867 -0.219419 -0.13582596
000010 84 25 94 bc e4 04 3b 3e 3c 98 85 bd 25 5b ac bd
       -0.018084295 0.18263584 -0.06523177 -0.08415822
000020 76 ec 1a be f8 85 06 3d 60 46 83 3d 78 31 7c be
       -0.15129265 0.032842606 0.06409907 -0.24628246
000030 60 1a 6e 3b c4 29 6a be c0 c6 55 be 5c c8 23 be
       0.0036331639 -0.22867495 -0.20876598 -0.159944
000040 a8 2c 49 3d dc a4 8c 3e d7 63 1b be ae 8f df bd
       0.049114853 0.27469528 -0.15174805 -0.109160766
000050 be 54 0d 3e 0d 01 fe bc e1 d0 4f be 42 af 4d 3e
       0.13801858 -0.03100636 -0.20294525 0.20086387
000060 2e 07 4b be 4b f9 40 3d f7 6b 7c 3c a6 f3 95 3d
       -0.19826958 0.047112744 0.0154066 0.07321863
000070 45 4b b8 be f2 3f f6 3b a4 21 7a be 23 29 60 3e
       -0.35994926 0.007514947 -0.24426895 0.21890692
000080 d5 f4 83 be 30 5a 25 3c 73 a4 88 bd cb f2 c1 bc
       -0.2577273 0.010092303 -0.06671991 -0.023675343
000090 ed 01 d6 bc 2e c2 37 3e 6b 22 d3 bd 07 7f 54 bd
       -0.026123965 0.17945167 -0.10309299 -0.051878955
0000a0 e1 b4 bc 3d 10 5d 9d be 09 55 8b 3c 94 b6 5e be
       0.092141874 -0.30735064 0.017008321 -0.21749336
0000b0 20 38 60 be d0 31 d3 bd cc 29 bd 3c 33 0e 08 be
       -0.2189641 -0.10312235 0.02309122 -0.13286667
0000c0 4f 54 59 be e2 9c 3c 3d 9a 8a 13 3e 92 1d 88 3d
       -0.21223567 0.046048053 0.14408341 0.06646265
0000d0 c9 69 c2 bc af 5c f8 bd a2 4f 94 bd 24 bd e0 3d
       -0.023732083 -0.12127053 -0.07241751 0.10973576
0000e0 70 f8 ab be 31 0d da be 98 12 20 bd fa 76 0d be
       -0.3358798 -0.4258819 -0.039080232 -0.13814917
0000f0 d7 b9 2f 3d 11 70 99 bd a2 34 48 be 0d da 3f bd
       0.04290184 -0.07492078 -0.19551328 -0.04683881
000100 c1 c9 eb 3c 98 a2 e6 3d 21 14 c8 bd 1b c3 81 3d
       0.028782727 0.11261481 -0.09769464 0.063360415
000110 7e 9d 80 be 1d 4f f6 3d ac 1e 82 be 54 42 17 bd
       -0.25120157 0.120268084 -0.25414026 -0.03692849
000120 79 27 1d 3d 4f 50 68 bc 00 9d fb 3c 51 79 50 be
       0.038367722 -0.014179303 0.030714512 -0.20358779
000130 ae 6f c5 3d 0f d8 1d be 86 65 20 be 02 78 59 bd
       0.09640442 -0.15414451 -0.15663728 -0.053092964
000140 36 93 d6 be 2b 73 ea 3d e2 b7 80 be e2 a4 52 be
       -0.41909188 0.11447748 -0.2514029 -0.2057071
000150 24 95 a4 bd e3 b8 f8 be 03 9f d8 bc 61 27 64 bd
       -0.08036259 -0.48578557 -0.02644301 -0.055701617
000160 79 54 b4 bd db d4 c3 be 51 04 e3 3c d8 74 c7 3d
       -0.088051744 -0.38248333 0.02771202 0.09739083
000170 49 82 4a bd 32 c4 70 3c f8 dd ea be 80 70 80 be
       -0.049440656 0.014695214 -0.45872474 -0.2508583
000180 33 ab e5 3d 94 88 8f be a5 a9 93 be 34 7e fa bd
       0.11214294 -0.28033888 -0.28840366 -0.122311026
000190 9a e5 db 3d f8 8e 02 bd e2 d4 66 be 93 57 23 be
       0.107371524 -0.031874627 -0.22542146 -0.15951376
0001a0 ee cd 01 bf b2 cd 5b bd 50 56 a2 bd 8c 29 cb be
       -0.5070485 -0.053662963 -0.07926619 -0.39680135
0001b0 be 57 89 bc 1f 84 82 bc 95 dc ae bc 52 80 0d 3e
       -0.016765472 -0.01593214 -0.021345416 0.13818482
0001c0 57 ca 81 be fb 77 ad 3c f6 db 13 bd 54 05 8d be
       -0.25349686 0.021175375 -0.036098443 -0.27543128
0001d0 de cd 1a be e5 ed a0 be 16 ed f2 3d a8 0b 0d be
       -0.15117595 -0.314315 0.11861627 -0.13773978
0001e0 fa bf 96 3d 1e 68 b7 3d bd ce e6 bd d0 78 11 bd
       0.073608354 0.08955406 -0.11269901 -0.035515606
0001f0 9e 4e cd be d8 75 57 bd ae fa c4 3d 79 0e ba be
       -0.40099043 -0.05260262 0.09618126 -0.36339167
000200 ee 42 8f be b1 db f0 be 68 56 de bb 79 6d 23 be
       -0.2798075 -0.4704261 -0.006785203 -0.15959729
000210 bc d2 a5 be 74 d3 cb 3c 84 c0 ed 3d 02 e4 e7 bc
       -0.3238734 0.024881102 0.11608985 -0.028306965
000220 da 81 a5 3d 89 c2 e4 be 05 0f 85 be 6d 26 07 3e
       0.08081408 -0.4467967 -0.25988021 0.13198252
000230 0d af 1f 3d 9b 3f 25 bd 78 22 18 3e 22 68 16 be
       0.0389853 -0.040343862 0.14856899 -0.14688161
000240 18 1f 38 be d6 d3 f3 bd 1c fd 12 3e 8c a1 1f bd
       -0.17980611 -0.11905639 0.14354366 -0.038972422
000250 2b b9 a2 be bf 5a de bd 4b 30 f1 be d7 e6 8e be
       -0.31781897 -0.10857152 -0.47107157 -0.27910492
000260 10 57 68 be 79 64 49 bd d5 0a 7b be c1 05 a5 be
       -0.22689462 -0.049168084 -0.24515851 -0.32230952
000270 57 0e cf 3d 0e aa b2 be b8 d4 34 bd 93 15 4d be
       0.10110157 -0.34895366 -0.044148177 -0.20027761
000280 c1 2b c7 3c b4 80 d2 be 33 bf d0 bd 8b 47 a4 be
       0.024312856 -0.41113818 -0.10192718 -0.32085833
000290 80 9f 88 be f5 70 ac 3d 0f fc bc be f4 08 80 bd
       -0.2668419 0.08419982 -0.36911055 -0.06251708
0002a0 10 1e 85 be d5 fc ec bc ed 65 50 ba 91 b7 16 be
       -0.25999498 -0.028929153 -0.00079497584 -0.14718463
0002b0 54 54 06 bb 9c dd 1d be 44 5b 9e be ad 01 3f 3e
       -0.002049704 -0.15416569 -0.30929005 0.18652983
0002c0 fb 93 85 be b3 c4 92 be bf b4 eb bd 4b 5e fe be
       -0.26089463 -0.28665695 -0.11509084 -0.49681315
0002d0 a1 bd 45 bd f2 5e 0f 3e 27 ee 7f bd a9 1d 3f 3e
       -0.048276547 0.14001063 -0.06248298 0.18663658
0002e0 a1 cb 38 3d 74 92 22 3a 13 07 14 be ab 6e 96 bd
       0.04511607 0.0006201633 -0.14455824 -0.07345327
0002f0 db bf 0e be d9 65 27 bc 64 3d 55 bd 42 68 9a 3d
       -0.13940375 -0.0102171535 -0.0520605 0.07539417
000300 53 db 40 bd f5 a1 c0 bb a8 97 58 be 4d cf 25 be
       -0.047084164 -0.005878682 -0.21151602 -0.1619236
000310 f1 10 25 be 79 13 89 3c c5 54 09 be a8 53 92 bd
       -0.16119744 0.016732918 -0.13411243 -0.071448624
000320 f1 73 56 bd cf 89 8b 3a bf e4 3a be 6c 3c cb bd
       -0.052356664 0.0010645929 -0.18251322 -0.09923634
000330 0d 74 75 be ae c2 0d 3c 51 de a5 bd 0a 8d 84 3d
       -0.23970051 0.008652372 -0.08099044 0.064722136
000340 7f e9 3f 3d 9f 68 ca bc 91 b0 3f bd 10 9f aa bd
       0.04685354 -0.02470809 -0.046799246 -0.0833112
000350 fc 9c 35 bd 60 0c a2 bd 1c a6 9d bd 90 d7 b1 bd
       -0.044339165 -0.079125166 -0.076976985 -0.086836934
000360 cc 75 0d be 30 9b 10 be c1 38 b5 3d 33 12 22 be
       -0.13814467 -0.141217 0.088487156 -0.15827255
000370 b3 2c f5 bc c7 62 89 3c e3 1e d3 b9 b3 9e 20 3d
       -0.02992854 0.016770734 -0.0004026807 0.039213847
000380 f6 11 fa bb c9 c6 1e bd 07 7e db bd 9d fd 9f bd
       -0.0076315356 -0.038763795 -0.10717397 -0.07812045
000390 ee a5 9b bd 0d cc c4 3b 6c ca 43 3d 8a d9 ed 3d
       -0.07600008 0.00600577 0.047800466 0.11613758
0003a0 1a 7a ee 3d a0 75 63 3d 9f 46 d5 3d 74 a1 44 3d
       0.11644383 0.055532098 0.104138605 0.048005536
0003b0 63 4a c0 3c 52 c3 a3 bc 87 cf 97 bc e0 ef 88 bc
       0.02347297 -0.019990597 -0.018531574 -0.016715944
0003c0 39 73 b5 3c 74 a2 26 bc ae bc 9f bd 09 b7 39 3c
       0.022149669 -0.010170568 -0.0779966 0.011335143
0003d0 09 79 11 bc 89 19 70 3d b1 9c 6f 3d 2d 77 c0 be
       -0.008878955 0.058618102 0.058499042 -0.37590924
0003e0 3a 1e d8 bc ba e9 81 3d 74 8e 16 3d 8f 0f 97 bd
       -0.0263816 0.06343408 0.036756948 -0.073760144
0003f0 c7 fa 52 3e 46 1b ab be c3 ea bb be 0a 3b b4 be
       0.20603476 -0.33419245 -0.36702546 -0.35201293

actionValueNet.act_fc1.bias f4 [512]
000000 d3 8b 75 be b9 22 85 bd e1 96 68 bd 92 da 06 be
       -0.2397912 -0.065007634 -0.056784514 -0.13169315
000010 bc 48 9c bd a2 f0 61 be 04 1c 35 bc 4b 86 e4 bd
       -0.076310605 -0.2206445 -0.011054043 -0.11158427
000020 8b 37 fd bd a6 0a fb bc 56 b6 6b be 22 0e bd 3d
       -0.123641096 -0.030644726 -0.23018774 0.09231211
000030 bc 76 2d bd 1f 90 38 be c2 56 47 be 7d db 87 be
       -0.042349562 -0.18023728 -0.19466689 -0.26534644
000040 38 a9 cd bc 2d f4 33 bd 21 8f 18 be ab 53 5b bd
       -0.025105104 -0.043934036 -0.1489835 -0.05354659
000050 bf f7 10 be b6 ca de bc 20 0f ee bd 9a c9 16 be
       -0.14157008 -0.02719627 -0.116239786 -0.14725342
000060 d8 11 51 be e9 81 28 be 1b e1 ad be 5d 71 15 3d
       -0.20416963 -0.16455807 -0.33960804 0.036485065
000070 68 3e b5 3b b9 d2 06 bc 21 a3 8e bb af 9e 09 be
       0.005531121 -0.008228951 -0.0043529426 -0.13439439
000080 3b b8 56 be 5c be 91 be a9 77 35 be 37 7c 6d be
       -0.20968716 -0.28465545 -0.17721428 -0.23191915
000090 9c 60 51 be 9b e3 86 be 04 82 39 be 1d 3d b9 bd
       -0.2044701 -0.26345524 -0.18116003 -0.090448596
0000a0 21 bd 97 be f9 63 de bc 0f 9b 98 bd 60 42 ef bc
       -0.2963648 -0.02714728 -0.0745145 -0.029206455
0000b0 7c ad 9a bd 76 b6 ac bc 4e 0f 3b be eb b0 c0 bd
       -0.07552621 -0.021083098 -0.18267557 -0.094087444
0000c0 f7 13 3d be 95 c0 bf bd 91 3c a7 3c d3 64 8a be
       -0.18464647 -0.09362904 0.020414623 -0.27030048
0000d0 55 cb 51 3d 44 5f 2c be f9 95 fc bd ae 3d 33 be
       0.051219303 -0.16833216 -0.123332925 -0.17503998
0000e0 b3 e7 11 bd 71 88 88 be 2c a3 57 be 61 dd b0 bd
       -0.035621356 -0.26666597 -0.21058339 -0.08635975
0000f0 48 f8 4e be 47 e5 0d bd ab df e1 bd 92 ee 34 bd
       -0.202119 -0.034642484 -0.110289894 -0.04417283
000100 9b 3f 0a 3d f2 3a 7a be b9 24 99 bc a6 1e 12 3c
       0.033752065 -0.24436548 -0.018694269 0.00891844
000110 cb be 76 bc 2b ea 9d be 51 3c 83 3d 96 6b 81 be
       -0.015060137 -0.30842718 0.06407989 -0.25277394
000120 f5 19 f2 bb cb 95 bd 3d eb d7 07 be 25 46 87 bd
       -0.007388348 0.09257086 -0.1326596 -0.06605176
000130 b3 2d d0 bd 9e e2 52 bd 23 1c f1 bd 6f ff af bd
       -0.101649664 -0.05148565 -0.11772945 -0.08593642
000140 cf fe 32 be ec 07 43 bc d4 b9 68 be e2 6b c6 bd
       -0.17480014 -0.011903744 -0.22727138 -0.09688546
000150 5b c1 c5 bd ee 5c da 3c 52 a2 35 be 5b 93 7c bd
       -0.0965602 0.02665564 -0.17737702 -0.061663967
000160 16 2c 88 bd ce 60 4d be 6e 25 09 be 70 e7 0e bd
       -0.06649034 -0.2005646 -0.13393185 -0.034888685
000170 eb d4 00 be 97 36 f5 3d 8c ae 88 bc 63 34 95 bd
       -0.12581222 0.11973303 -0.016684793 -0.072853826
000180 96 75 91 bd be 67 3b be 4d 32 05 be 16 a8 d5 bd
       -0.07102506 -0.18301293 -0.1300747 -0.104324505
000190 bf 3b 05 be b5 7f 0b be 5a bc 12 be 63 3f 0e be
       -0.13011073 -0.13622935 -0.14329663 -0.13891368
0001a0 97 1e 90 be 4a ef 90 3b 40 ca 3d be d7 03 7f be
       -0.28148338 0.0044230567 -0.18534184 -0.24903809
0001b0 67 52 43 bd ef 1e 1a bd 18 18 ea bd 43 a2 a8 bd
       -0.047686007 -0.037627157 -0.11430377 -0.08234074
0001c0 6d 0e 70 be b7 b5 b0 3b 73 74 90 be 34 3c 8d 3c
       -0.23443003 0.005392756 -0.28213844 0.017240621
0001d0 00 e0 65 bc ec a0 83 bb e8 78 4d be 19 a0 cc bd
       -0.014030457 -0.004016986 -0.20065653 -0.09991474
0001e0 56 ae ea bd d6 d4 95 bd 61 b7 cd bd 49 a6 c9 bd
       -0.11459033 -0.07315986 -0.100447424 -0.098461695
0001f0 bb c4 9b 3c 0a 86 b2 bd c7 9e 42 be d1 67 38 be
       0.019014707 -0.08716972 -0.19005881 -0.18008353
000200 06 9d 3c bd d8 3e 90 3c 7d fa 89 be 68 a4 83 be
       -0.046048187 0.017608091 -0.2694892 -0.2571137
000210 14 59 30 be 53 d4 a0 3b e3 a8 50 be fb c9 b9 bc
       -0.1722148 0.0049081235 -0.20376925 -0.02267932
000220 af ef 51 be 0d d1 b7 bc 23 36 ca bd 29 9a 14 be
       -0.20501588 -0.02243855 -0.09873607 -0.14511932
000230 be 88 cc bd 91 bd ad 3d f7 d0 25 be 44 3b 21 3d
       -0.09987019 0.084834225 -0.16192995 0.03936316
000240 db 2c 81 be 84 4a 92 be 02 23 24 be de 27 42 3c
       -0.25229535 -0.28572476 -0.1602898 0.011850325
000250 ba 1f ff bc 70 5e 4e 3d 82 3a af bd 2e e5 2b 3c
       -0.031143058 0.05038303 -0.08556081 0.010491652
000260 11 48 b4 3c 51 c2 98 be 37 87 46 be 36 62 64 be
       0.02200702 -0.29835752 -0.19387518 -0.2230309
000270 31 96 09 3d ee 12 b6 bd e8 48 e0 bd 62 86 8b be
       0.0335905 -0.08890329 -0.10951406 -0.27250963
000280 ca 0b cf bd e6 e1 24 be 65 f3 98 be cf 11 ec bc
       -0.101096705 -0.16101798 -0.29873195 -0.028817086
000290 2d 63 f8 bd 9f 99 8a be 79 9f 8a bc 20 19 8c bd
       -0.12128291 -0.2707033 -0.016921746 -0.0684073
0002a0 ab b9 73 be 86 aa 04 be 49 84 3f bc 13 f2 65 bb
       -0.23801295 -0.12955675 -0.011689254 -0.0035086914
0002b0 33 e3 52 be d2 3e b9 bd 1f 01 22 be c0 cb 74 be
       -0.20594482 -0.09045185 -0.1582074 -0.2390585
0002c0 03 f4 31 be 44 bf 1d bb d9 e3 d4 3c 15 67 36 be
       -0.1737824 -0.0024070302 0.025987552 -0.1781276
0002d0 57 1e d0 bd 64 3d 6f be 47 a3 e6 bd 03 00 23 bd
       -0.10162037 -0.23363262 -0.112616114 -0.039794933
0002e0 88 7c 5f bd e2 e9 cd bd 95 00 81 be 63 12 09 be
       -0.05456212 -0.10054375 -0.25195757 -0.1338592
0002f0 84 87 39 be af e7 99 bd 01 a0 07 bc fb 20 ae bd
       -0.18118101 -0.07514893 -0.008277894 -0.08502384
000300 cc bc 4a be a7 2a 32 be 62 ac 1d be 39 f6 cc bd
       -0.19798583 -0.17399083 -0.1539779 -0.10007901
000310 29 67 e5 bd 43 bd 88 be 07 c8 35 3d df c2 7e be
       -0.11201317 -0.26706895 0.044380214 -0.24879025
000320 16 25 57 bc 95 e4 f1 bd 31 d8 00 be 42 9d 9f bc
       -0.013131401 -0.11811177 -0.1258247 -0.019484166
000330 8a 67 19 be c0 05 06 be 01 92 5a be cc e2 56 be
       -0.14980903 -0.13088131 -0.21344759 -0.20984954
000340 bc cf 1e bc 52 8f 7a bc 48 cf 6f bc 1e 38 72 bd
       -0.009693082 -0.015292959 -0.014636822 -0.05913555
000350 5e d7 86 bd 65 de bf bc e5 97 1f be f7 83 a1 bd
       -0.06584047 -0.023421476 -0.15585287 -0.078864984
000360 d3 a8 a5 bd b2 14 06 be 9c aa 9b 3c 6d 1e 83 be
       -0.08088841 -0.13093832 0.019002251 -0.2560915
000370 f5 6e b3 bd cd 99 65 be 32 ac ff 3c eb 93 d0 bd
       -0.08761398 -0.22421952 0.031210039 -0.10184463
000380 9a f6 0a be 09 72 83 bd 44 ac f3 bd 2f bf 1b be
       -0.13570634 -0.06418235 -0.118980914 -0.1520965
000390 dc 2d c0 bd eb eb 37 bd e8 16 48 be 72 42 eb bd
       -0.09383747 -0.044902723 -0.19539988 -0.11487283
0003a0 fd e9 4e be 90 d8 a0 bd e7 c8 32 3d 95 63 9e bd
       -0.20206447 -0.07853806 0.043648627 -0.077338375
0003b0 91 32 1b be 63 bb 50 3c fd 95 49 bd 04 ba 88 be
       -0.15156008 0.012739989 -0.049215306 -0.2670442
0003c0 37 1a eb 3d 6c 8b 67 be a8 63 d0 bd f4 68 8c 3c
       0.114796095 -0.22611779 -0.10175258 0.01713989
0003d0 9f 56 92 bd 99 4e 7b be 85 ce a8 bd 72 bf 52 bd
       -0.07145428 -0.24541701 -0.082425155 -0.051452108
0003e0 d2 81 21 bc d6 d2 f5 bc 8c cb b2 bd 50 d6 a9 bd
       -0.009857612 -0.030007761 -0.0873023 -0.0829283
0003f0 28 78 31 3d 3f d1 4f be 0d c2 bb bd db 98 2c be
       0.04332748 -0.20294665 -0.091678716 -0.16855185

actionValueNet.act_final.weight f4 [4, 512]
000000 c4 a9 1c 3d 56 d9 2e 3d 76 d2 6d bc ec 14 f8 3c
       0.03824784 0.042687736 -0.01451551 0.030283414
000010 ae 77 2a bd 3a 3e 47 bb 74 93 40 3e 54 40 5a 3c
       -0.04161804 -0.003040208 0.18806249 0.013321001
000020 33 20 f1 3d 89 4b 07 3d 9f 5d bd bb 91 c0 07 bc
       0.1177372 0.03303102 -0.005778983 -0.0082856575
000030 6a fd 05 3e a5 a1 43 3d 1a 9e 15 3e 0a 5b d5 bd
       0.13084951 0.047761578 0.14611092 -0.10417755
000040 4c 08 74 3d d0 0b 25 be e0 79 96 3d d3 d6 ab 3b
       0.059578225 -0.16117787 0.073474646 0.005244115
000050 e4 c1 ab 3b f3 d5 e4 3c 3a ee 03 3d 28 70 43 be
       0.0052416194 0.02793405 0.032209612 -0.19085753
000060 0d fc dc 3c d8 3f e0 bc 54 c4 38 3d 81 9f 2b bd
       0.026975656 -0.027374193 0.045109108 -0.04190016
000070 66 6c 27 3d cd 0d a2 3d 8c 0e 1e be 4d 52 31 3d
       0.04087486 0.079127885 -0.15435237 0.04329138
000080 35 fb 92 bd c7 48 ba bd 47 4b 9e bd 4a 3e c8 3d
       -0.0717682 -0.090959124 -0.07729202 0.09777506
000090 2f ff 16 3d ad 34 24 3e 97 54 01 bc 25 12 ac 3d
       0.036864456 0.16035719 -0.007893703 0.08401898
0000a0 5b a2 89 3d ed d1 6c 3d 1f 10 48 3e 21 e0 20 3e
       0.0672042 0.05781739 0.195374 0.15710498
0000b0 86 6c 1b 3e 46 8b 34 be 3a ab 2b be 93 eb 27 3d
       0.15178117 -0.17631254 -0.16764536 0.040996145
0000c0 a2 7c 2e 3c ab 67 be bb 33 99 63 3d 9f 26 61 3d
       0.010649832 -0.005810698 0.055566024 0.054968473
0000d0 d2 a1 ad bc dd d0 a3 3d 8f 4b 80 bd 6c fa 42 3c
       -0.021195326 0.07998822 -0.06264412 0.011900526
0000e0 d6 d3 cb bc 55 08 68 bd e6 7c fb bc a7 47 95 3c
       -0.024881285 -0.05664857 -0.030699205 0.018222643
0000f0 aa 4d 84 3d fa 70 d4 3d f4 6b a3 bc 2f e3 07 bd
       0.06460126 0.10373111 -0.019948937 -0.033175644
000100 4f 44 d3 bd a0 39 91 3c 62 f8 88 bc 70 68 96 bd
       -0.10315763 0.017727673 -0.01672 -0.073441386
000110 b0 1a 29 3d 01 e0 d3 3b 1f 3b a5 bc 22 bd b8 3d
       0.041285217 0.0064659123 -0.020169793 0.09020449
000120 b4 ee 7f 3d 9c 1e 22 3d 06 a4 fd 3d bc 41 40 3d
       0.062483504 0.039579973 0.123848006 0.04693769
000130 65 c2 d5 bd d9 8c e2 bc e3 b9 a8 bc fa b2 f3 bc
       -0.104374684 -0.027655052 -0.02059645 -0.029748429
000140 c8 15 7e 3c 87 7f 46 bd 3c 1b 99 3d 0a 9b a0 bd
       0.015508123 -0.048461463 0.07475898 -0.07842071
000150 43 96 ef 39 e2 ec 00 bd 3d 8c 94 3d 80 7e c9 bc
       0.00045697586 -0.03147591 0.07253311 -0.024596453
000160 00 2a 9e 3c d2 99 b1 bc 78 8f 09 be 1c 8a 99 bd
       0.019307137 -0.021679793 -0.13433635 -0.074970454
000170 54 95 0b be 09 80 a9 bd 6b eb 63 be d2 68 5a be
       -0.13631183 -0.08276374 -0.22257774 -0.21329048
000180 94 85 e0 3c f8 8a 4d 3d 17 48 09 3e 20 f4 c8 bd
       0.027407445 0.05018136 0.13406406 -0.09812188
000190 c8 bf 29 3e df 88 90 3b 10 3b 95 bd de 71 a7 bd
       0.16577065 0.0044108476 -0.07286656 -0.08176015
0001a0 18 e2 83 bd 83 ca af 3a b4 bf 71 bd 49 d4 5a bd
       -0.06439608 0.0013411794 -0.059020713 -0.053425107
0001b0 5a 0f 19 3c da 3b a0 3d df b0 65 be 9b f7 93 bd
       0.009342039 0.07823916 -0.22430752 -0.07224961
0001c0 3b 3b 79 be 3f 3a 61 b9 44 48 85 3d 67 db 89 3d
       -0.24339001 -0.0002147937 0.06507924 0.06731301
0001d0 0d f6 64 be 80 6e 84 3e 06 96 28 b9 f5 fd c7 3d
       -0.22359486 0.25865555 -0.00016077617 0.09765235
0001e0 0e 70 8d 3d 3b 12 62 bc a3 af 6c bd 0c 25 3c be
       0.06906138 -0.013798292 -0.057784688 -0.18373507
0001f0 e0 1f 5b 3d 04 21 c5 3c d0 20 09 3d a2 d5 b2 bd
       0.053497195 0.024063595 0.033478558 -0.087321535
000200 62 b9 c9 3e c8 08 36 bd 60 ac 30 3d a0 80 43 bd
       0.39399248 -0.04444197 0.04313314 -0.04773009
000210 2a 92 90 3d 2a 3d a9 bd 58 9b 02 3e 51 a5 c7 bd
       0.070591286 -0.08263619 0.12754571 -0.097483285
000220 38 89 e5 bc a0 92 93 bd 54 1c 94 3d 83 ed 00 be
       -0.028019533 -0.07205701 0.07231966 -0.12590604
000230 3e 48 2f 3d fb ae 25 be 97 f2 b7 3b 3c c0 48 bd
       0.042793505 -0.16180031 0.0056136358 -0.049011454
000240 d3 2a 0c bd 6b e1 67 3c 3b a9 d9 3d 0f df c7 3d
       -0.034220528 0.014152865 0.10627981 0.09759342
000250 fe 45 a4 3d f7 c5 97 bd 79 45 49 3d 2f c9 0c 3d
       0.080211625 -0.07410806 0.04913852 0.03437155
000260 d0 a9 ca bd 0e 2a 87 3d 58 02 53 3d 36 68 91 3d
       -0.098956704 0.06599818 0.051515907 0.07099955
000270 86 c3 a3 bd 38 91 43 bd a7 48 d4 bc 9d 68 b2 3c
       -0.079962775 -0.047745913 -0.02591355 0.0217784
000280 45 a0 a8 3b de ce e9 bd bf e3 ff 3d da 7b d5 bd
       0.0051460587 -0.1141641 0.12494611 -0.104240134
000290 22 70 12 bd 49 19 45 be eb 1d 9a bb 1a 72 55 bd
       -0.03575147 -0.19247927 -0.0047032735 -0.05211077
0002a0 7d b7 44 3d 8e 1c 95 3c 4e 66 42 3c 49 39 97 3d
       0.04802655 0.018202092 0.011865212 0.07383973
0002b0 5b 42 32 3d 7c a8 e7 bd 8d 19 b8 bc fe 7c 2d bc
       0.043520313 -0.11311433 -0.022473121 -0.0105888825
0002c0 4b d4 dd bd 84 60 41 3c c4 93 03 3d c6 22 b7 3b
       -0.10831507 0.011802796 0.032123342 0.005588862
0002d0 46 5c c4 bb ab fd 20 3e dc c3 9b bd e3 2e df 3c
       -0.005992445 0.15721767 -0.076057166 0.027244037
0002e0 93 e1 b8 bc 43 33 03 3d 71 0f a5 3c e2 fe b4 3b
       -0.0225685 0.03203131 0.020148965 0.0055235485
0002f0 5a db c5 3d b0 f3 31 bd 5d 34 05 3d 5e 11 e8 bd
       0.096609786 -0.04344529 0.03252064 -0.113314375
000300 76 10 ba 3c ca 55 62 3d 2a 21 80 3c 6f 3d 1a be
       0.022712927 0.055257596 0.015640814 -0.15062498
000310 6a 21 6c be cb ec 2e bd d9 bd 34 be 13 fe 46 3d
       -0.23059621 -0.042706292 -0.17650546 0.048582148
000320 22 a0 89 3d b9 af 5c 3d 6e 56 a7 3d 6e 8c 39 bb
       0.06719996 0.05387852 0.08170782 -0.0028312462
000330 db 8d ba 3d a9 17 8a 3d 0d d7 08 3d f4 4f 09 bd
       0.09109088 0.06742794 0.033408213 -0.033523515
000340 67 65 8c 3d 65 54 38 bd 5b b1 f5 bd 0e 43 e9 bd
       0.068552785 -0.04500236 -0.119967185 -0.11389743
000350 58 24 39 3e ae 6b dd 3d a0 7b ec bd 39 15 78 b8
       0.1808027 0.10811554 -0.11547017 -5.9147573e-05
000360 0e 9d db bd 80 1c c8 bc f1 5c a9 bd 03 da f6 3c
       -0.10723315 -0.024427652 -0.0826968 0.030133253
000370 3d 18 56 bc 52 34 64 bd a7 9a 23 bb ee b8 0c 3e
       -0.013067302 -0.05571396 -0.0024964006 0.1374242
000380 bf 22 99 bd 50 2f d2 3d b4 fe bc 3c 70 71 8e 3d
       -0.074773304 0.102629304 0.02307067 0.0695523
000390 2f 06 23 3e 63 e9 30 bd 13 fe 73 bc f3 81 bd ba
       0.15920328 -0.043191325 -0.014892119 -0.0014458284
0003a0 f8 80 fa bd 98 33 72 3d 17 49 0c 3d 9e b4 8a be
       -0.1223163 0.059131235 0.03424939 -0.27090925
0003b0 39 ec a9 3e 35 c5 bd bc 8a 38 20 be 14 0a 88 bb
       0.33188036 -0.023165325 -0.15646568 -0.004151592
0003c0 5b ec b8 bd 15 fa 04 3d 97 0d 90 3d f1 a5 9f 3c
       -0.09029456 0.03246506 0.07033842 0.019488307
0003d0 5f e6 3b be 4a 98 9e 3c 6e 04 85 bd 57 5c e8 bd
       -0.18349598 0.019359726 -0.064949855 -0.113457374
0003e0 0d 85 0b be 63 cf b6 3b f0 69 6b 3c d1 4a 37 3d
       -0.13624974 0.0055789216 0.014368519 0.044749085
0003f0 ab b3 d9 3d ef 85 dd bd 4f 38 9f bc a8 f2 6b be
       0.10629972 -0.108165614 -0.01943603 -0.23041785

actionValueNet.act_final.bias f4 [4]
000000 70 a3 1f 3d 5e 65 82 bd 65 a9 ce bc 09 25 db bc
       0.038974226 -0.063669905 -0.025227258 -0.026751058

stateValueNet.state_fc1.weight f4 [512, 37]
000000 fe 32 46 3d 27 74 73 bc 04 2e 2f 3d f5 43 4f 3d
       0.048388474 -0.014859236 0.042768493 0.05060192
000010 c3 d2 5a bd 27 13 80 3e 69 b8 2c bc 2f 4f 23 be
       -0.053423654 0.25014612 -0.010542014 -0.15948175
000020 46 e4 35 3c 9b bc ba be 46 55 97 bd f3 ee 33 3e
       0.011101788 -0.3647202 -0.073893115 0.1757162
000030 bd f2 d6 3d aa db ac bd ae 8c 18 3e 23 cc cb 3d
       0.104955174 -0.08440335 0.14897415 0.09951045
000040 30 01 9d bd ab 9d d8 3d 1c 2e df 3b 78 14 04 be
       -0.07666242 0.10576948 0.0068109166 -0.12898433
000050 bf 86 72 3e 8c 23 45 bd ef 07 c4 bd 5a 66 0f 3e
       0.23684214 -0.048129603 -0.09571826 0.14003888
000060 ba 62 60 bc 61 24 17 3e c5 18 54 3d 99 5c dc 3d
       -0.013695413 0.14759971 0.051781435 0.10759849
000070 1b 0b fd 3d b7 7f 1f be e2 8c 1d bd 2a 12 5b 3d
       0.12355634 -0.15576063 -0.038464434 0.05348412
000080 6d 0a 00 3d 6d 4e f1 bd 3f d2 3a be 77 65 8c 3d
       0.031259943 -0.11782537 -0.18244265 0.068552904
000090 df 48 cb bb 3f 84 c3 3c b1 87 40 3e e8 fc 04 3e
       -0.0062037553 0.02386677 0.18801762 0.12987101
0000a0 7d 14 4b bd f9 f1 61 3c 6f f7 b3 3d 78 54 17 3e
       -0.049580086 0.013790601 0.087874286 0.14778316
0000b0 e3 f0 b1 bd 4a b2 7a 3d 2f 4c 41 3d ba 1e 47 3d
       -0.086885236 0.061205186 0.047191795 0.048613288
0000c0 cd 81 dc bd e6 3a 72 bd 1d 41 29 bc 27 64 dd bd
       -0.10766945 -0.0591382 -0.010330466 -0.10810118
0000d0 91 ea 29 bd aa d5 66 3d d0 0e 2b be a1 e0 76 3d
       -0.041483466 0.05635611 -0.1670487 0.060272817
0000e0 e7 5d b4 3d a6 f8 67 bd cf 1d 30 bc 74 62 7c bd
       0.08806973 -0.056633614 -0.010749294 -0.06161733
0000f0 d6 94 8f be 8f 36 40 be e1 8e 66 3e 25 26 40 bd
       -0.2804324 -0.18770812 0.22515441 -0.046911377
000100 91 1a 2e 3d 2a 64 aa 3d 86 af e2 be 99 3a 80 3e
       0.042505804 0.08319886 -0.4427454 0.25044706
000110 f0 9e 01 be 6c 75 6b 3d 80 59 83 bc b6 2c f0 be
       -0.12658286 0.05748503 -0.016033888 -0.46909112
000120 73 e4 0a 3d 0f 25 26 3c df cc e4 3d 85 dd 54 bd
       0.033909272 0.010140671 0.111718886 -0.05196907
000130 a3 40 a2 3d 5e ae 78 be 8f 75 26 3e 83 a3 0b be
       0.07922485 -0.24285266 0.16255783 -0.13636594
000140 bc 7c 39 3d 7f 84 91 3d b8 2d 2e 3e ff f4 9c be
       0.04528497 0.0710535 0.17009628 -0.30655667
000150 b6 a5 2c 3e d4 9b 85 3d 27 cc 0b be 8e 4d 18 3e
       0.16860089 0.065238625 -0.13652097 0.14873335
000160 b6 6e cf 3d d2 b0 1d 3e 54 21 82 be db ab 8f 3d
       0.10128538 0.15399483 -0.25416052 0.07015201
000170 fc 76 88 be c1 45 91 be 21 8b 13 3e c7 db 03 be
       -0.26653278 -0.2837353 0.14408542 -0.12876807
000180 45 3d 9d be 2f c9 f2 3d 2b 9d 10 3e b4 16 2b bd
       -0.30710807 0.11854779 0.14122455 -0.0417697
000190 cf a4 7e be 43 0b 02 bc ab 96 b3 bd 21 8d 1e 3d
       -0.24867557 -0.007937255 -0.08768972 0.03870881
0001a0 60 c3 e4 3d 7f 30 ee 3d dc 92 86 be be 22 82 3c
       0.11170077 0.11630344 -0.2628392 0.015885707
0001b0 a8 4c 78 be e0 1a 40 3c 72 b7 38 bc 6f 7d b8 bc
       -0.24247992 0.0117251575 -0.0112742055 -0.022520749
0001c0 11 b2 02 be d3 2b c2 bd b9 c1 ec bd bc ac c0 3b
       -0.1276324 -0.09481015 -0.11560387 0.0058799665
0001d0 08 00 0a bd 5b 1c 27 be 4d 1e 25 be 3a 89 5d bd
       -0.033691436 -0.1631941 -0.1612484 -0.054085948
0001e0 14 b6 93 bc c6 cf 86 bd 82 f7 f0 bd 08 5e 55 be
       -0.018031158 -0.065825984 -0.11765958 -0.20836651
0001f0 78 c0 12 3c e9 5b 62 3d f2 b3 e7 bd dd 37 0c bc
       0.008957021 0.055263434 -0.11313619 -0.008558241
000200 7a a7 12 be 03 f8 02 be ce b2 64 be 1c d4 2c bd
       -0.143217 -0.12789921 -0.22333834 -0.04219447
000210 94 75 33 be 2c b2 08 be 94 e0 14 bb 24 e5 40 be
       -0.17525321 -0.13349217 -0.0022716867 -0.1883741
000220 42 eb 9b 3c 54 1c bc 3d fd 29 11 3d 5e 24 ad 3c
       0.019033078 0.09185091 0.035440434 0.021135505
000230 1a 80 2b be 3d a0 97 3c 7a 50 23 bb 2e 6e 7c bd
       -0.16748086 0.018509025 -0.0024919794 -0.061628513
000240 c6 12 b8 bd 7b 7d 23 be b9 5f 25 3b 5b 3d 11 bd
       -0.08987956 -0.15965836 0.0025234057 -0.035458904
000250 ac 47 3a 3d c3 aa c4 3d bd bd 50 3d c0 a9 19 3d
       0.045478508 0.09602883 0.0509622 0.0375154
000260 25 7c 0c be c6 81 27 3b a1 0b 20 bd fa 06 a7 3d
       -0.13719232 0.0025559529 -0.03907359 0.081556275
000270 f7 41 46 3c 05 e5 fd 3c 49 68 05 3e 8e 34 90 3d
       0.012100688 0.030992994 0.13028063 0.07041274
000280 66 55 a8 3d e4 47 8a 3c eb aa c9 bd 6e 90 9b 3d
       0.082194135 0.016879983 -0.09847053 0.07595907
000290 1c b8 39 3d 2f 57 25 3d 53 8d 96 3d d3 47 bf bd
       0.045341596 0.040366348 0.07351174 -0.09339871
0002a0 34 47 da 3c 5c a9 19 3e c8 12 22 3e 82 af 96 3d
       0.02664528 0.15006012 0.15827477 0.07357694
0002b0 28 a4 0c 3e 76 48 00 3e ff dc d6 3c dc 60 96 3d
       0.13734496 0.12527642 0.026228426 0.07342693
0002c0 5d 38 52 3c 3f 9d 40 bd 30 82 a1 3d d0 1e 1c bd
       0.012830821 -0.04702496 0.078861594 -0.038115323
0002d0 70 13 26 3d 1a 79 13 bc 4d 00 6e bd 95 37 1b bc
       0.04054588 -0.009001041 -0.058105756 -0.009473701
0002e0 f6 1a 16 bb 87 1a 2f 3e 7e e7 ee 3d fc 18 fa 3d
       -0.0022904254 0.17099963 0.116652474 0.12211797
0002f0 38 15 b0 3d 05 f3 4c 3d 10 24 4c 3d 95 c9 06 be
       0.08597797 0.05003645 0.04983908 -0.13162835
000300 51 54 24 3d f0 e6 40 3d cf 7d 86 bc f0 5d ea 3d
       0.040119473 0.04709524 -0.016417412 0.114436984
000310 96 54 9d 3d 2a ac 0c 3e ea 6a 55 3e c2 db ef 3c
       0.07682149 0.1373755 0.20841566 0.029279593
000320 59 5b 83 3c 07 35 0b 3d e5 b6 e4 3c 21 07 9e 3d
       0.016034769 0.033986118 0.027919242 0.077162035
000330 24 4e cf bb f4 83 49 3d fc 5c f3 bc 24 5c 18 3c
       -0.0063264538 0.049198106 -0.029707424 0.009299312
000340 78 9a 4c 3b 98 d3 a0 3d ed aa 1a bb 12 21 6d 3d
       0.003122 0.07852858 -0.0023600415 0.057892866
000350 2a dc a5 3c 86 bf 2b 3c 96 c3 02 3d b4 73 e4 3d
       0.020246584 0.010482674 0.031924807 0.11154881
000360 63 d9 3d 3e 52 ad 13 3e 88 15 35 3d 2e ab ab bd
       0.18539958 0.14421585 0.044209987 -0.08382259
000370 59 60 9a bc c0 f7 68 bc b3 11 c1 be d9 b4 34 be
       -0.01884477 -0.014219224 -0.37708816 -0.17647113
000380 1e c7 fb 3c 55 81 54 be 1b 4e a1 be ee 2c 23 bd
       0.030734595 -0.20752461 -0.31504902 -0.03983777
000390 a3 97 9f bd 76 8d 80 be cf ff 8f be 14 fe 45 3d
       -0.07792594 -0.25107926 -0.28124854 0.04833801
0003a0 be 88 9f be 24 33 92 be 4b c7 bb 3d 6e e7 b8 bd
       -0.31159014 -0.28554642 0.091688715 -0.09028517
0003b0 de d4 b4 be 15 94 34 bc 86 3e c8 be 2f 38 c2 be
       -0.35318655 -0.011021634 -0.39110202 -0.3793349
0003c0 47 4e c8 bd c7 7b ad bc 34 25 a0 be 1d ee b3 bd
       -0.09780555 -0.021177186 -0.31278384 -0.08785651
0003d0 d0 f1 b8 bd e0 c6 85 3d 74 da 08 bf 15 ee 15 bd
       -0.09030497 0.06532073 -0.53458333 -0.036604006
0003e0 4c 46 1d be c9 4c c7 be 8f 69 e5 bd ac 3e c8 be
       -0.15358847 -0.3892577 -0.11201774 -0.39110315
0003f0 f3 81 24 be 3c 14 31 bd e7 96 af 3d 67 84 d2 bd
       -0.16065197 -0.043232188 0.08573704 -0.1027916

stateValueNet.state_fc1.bias f4 [512]
000000 68 e6 25 3d 73 b5 f4 3d e3 ec 79 bd 26 d4 83 be
       0.040502936 0.11948671 -0.06101693 -0.25747794
000010 0d 22 86 3e b4 6e 75 3d 29 c4 78 be ad bb 56 3e
       0.26197854 0.059920028 -0.24293579 0.2097003
000020 70 e6 56 3d 86 d5 52 3e 43 df 33 3e 09 f2 49 3d
       0.052465856 0.20589265 0.17565636 0.04930309
000030 48 d3 13 3d 3e 94 27 3d bc 5b 39 3e 89 a1 4c 3e
       0.036090165 0.04091286 0.181014 0.19983496
000040 b5 b6 5e 3e bb 0a 00 3e 42 27 2a 3e 4b b5 15 3e
       0.21749385 0.12504093 0.16616538 0.14619939
000050 97 d5 57 3d 70 b5 1e 3e 5a 1c 12 3e 9c da 60 3e
       0.05269393 0.154989 0.14268628 0.21958393
000060 cd 1a 74 3a 30 7c 96 bd 1d 4f 4f be 9c 47 68 3d
       0.0009311855 -0.07347906 -0.20245023 0.056708917
000070 e3 d2 32 3e 13 9d 4c 3e 59 79 de 3d df 65 29 be
       0.1746326 0.19981794 0.10862989 -0.16542767
000080 64 51 8c 3d a1 a4 22 be 1c 97 cf 3d e9 bc 54 3e
       0.068514615 -0.15883113 0.10136244 0.20775189
000090 d9 1d 6e 3e 71 a2 c7 3d 67 dc 2a 3e 33 1b 21 3e
       0.23253573 0.0974778 0.1668564 0.15733032
0000a0 57 d0 56 3e 04 42 55 bd cf c6 5f 3e 69 c4 08 3c
       0.20977913 -0.05206491 0.21853183 0.008347609
0000b0 72 17 f5 bd 27 52 1e be 1d 4d 0a 3d 35 47 0f be
       -0.119673625 -0.15461026 0.033764947 -0.13992007
0000c0 41 e3 12 3e 5d e7 19 bc 03 df 63 3d 0c e8 f8 bc
       0.14344503 -0.00939354 0.055632602 -0.030384086
0000d0 0e db eb 3c fb 15 84 3d dc b8 a5 3c 1e 15 05 3e
       0.028790977 0.06449505 0.02022975 0.12996337
0000e0 af 0c 44 3e 35 10 0a 3e a7 44 58 bc 98 28 c5 3d
       0.19145463 0.13482745 -0.013199962 0.09626883
0000f0 cf 62 4f 3d d4 03 34 3e 2e c7 62 3e 4f b2 73 be
       0.05063134 0.17579585 0.22146294 -0.23798488
000100 03 1e 7e 3d 1a 18 d7 bc 8b 5b 34 be 3d a7 7e 3d
       0.06204034 -0.02625661 -0.17613046 0.06217121
000110 ca 99 5e 3e de 04 15 3d d7 69 8a bd 77 3e fe bd
       0.21738353 0.036381595 -0.067584686 -0.12414258
000120 95 50 e0 3d c8 19 07 3e 90 55 7f bc 68 16 5e 3e
       0.1095287 0.13193429 -0.0155843645 0.21688235
000130 ad a5 1a 3e 99 f2 5d 3e 54 49 47 3e ea 74 d7 bd
       0.15102263 0.21674575 0.19461566 -0.105203465
000140 ad e2 40 bd c6 00 6d 3e da 39 11 3e 0b e3 a1 3a
       -0.047091175 0.23144826 0.14182225 0.0012350989
000150 0f 00 9b be a5 33 97 bc 16 85 48 3e 98 af 25 3e
       -0.30273482 -0.018457243 0.19582018 0.16180265
000160 89 5e d3 3d 6d 3a b1 bd 09 77 67 3e 67 b4 2f 3e
       0.103207655 -0.08653722 0.22604002 0.17158662
000170 e4 f2 5a be 71 34 70 3e f7 2b 0c be e3 0f ec bd
       -0.21381718 0.23457505 -0.13688646 -0.11526468
000180 fc 9c 4b bc 1f 55 be 3a 72 ff 6b 3d 3a f9 59 3e
       -0.012427565 0.0014521218 0.05761666 0.21286479
000190 5a f0 9d 3d 64 f4 a0 bd d2 35 20 3d 86 2b 66 3e
       0.07711859 -0.07859114 0.039113827 0.2247754
0001a0 eb c8 36 3e e5 57 bf 3d 3b 0d 03 3e c5 d4 bb bd
       0.17850082 0.093429364 0.12798016 -0.09171442
0001b0 64 10 0c 3e 64 51 76 bd cf 42 8d 3c ca c7 d5 3d
       0.13678128 -0.060136214 0.01724377 0.10438497
0001c0 32 8d f6 bd f3 8d 42 3e fc 4f f4 bd 30 8e b9 3d
       -0.120386496 0.18999462 -0.11929318 0.09060323
0001d0 35 bf 11 be ee ea 54 3e df d0 1c 3e 98 60 56 3d
       -0.14233096 0.20792744 0.15314053 0.052338213
0001e0 87 2e b9 3d b0 7b 22 3e ec cf 7e be 80 7b d5 3d
       0.090420775 0.15867496 -0.24884003 0.104239464
0001f0 0f 71 a5 3d be 64 a7 bc 6a cf 52 3e f2 e2 77 3d
       0.08078205 -0.02043378 0.20586935 0.060519166
000200 d9 11 16 3e 04 48 50 be 6e c6 2d 3e 73 66 90 3c
       0.14655246 -0.20339972 0.16970226 0.017626977
000210 ca e3 22 bd 32 ab bb 3d 1d 49 22 3e c8 b3 16 be
       -0.039768018 0.09163512 0.15848203 -0.14717019
000220 e6 69 76 be 65 b7 10 3e 63 29 b5 3d a3 d8 40 3e
       -0.24063835 0.1413246 0.088457845 0.1883264
000230 7c b9 4d be 04 48 01 3e 39 29 54 be c0 87 39 3e
       -0.20090288 0.12625128 -0.2071885 0.18118191
000240 0b 7b 35 3e 48 85 37 be 0e 4c 25 bd aa 5b 39 3e
       0.17722718 -0.17921937 -0.040355735 0.18101373
000250 72 2d 57 be 59 3a 2d 3d 2f 36 98 3d 16 fa 18 3e
       -0.2101343 0.042291973 0.0743221 0.1493915
000260 6e c0 4b 3e fe df 49 bd d7 09 51 3e 85 3b 47 3e
       0.19897625 -0.04928588 0.2041391 0.19456299
000270 57 2f ab 3d d5 3c 10 3e fc 96 61 3e fa 4d 58 3e
       0.08358639 0.14085706 0.22030252 0.21123496
000280 b9 6d 2b bd 99 36 59 3e bf e2 27 be fb bf 4b 3e
       -0.041852687 0.21212234 -0.1639509 0.19897453
000290 0b 03 da bd 88 4d e7 bd fb 26 7b 3e 04 bd 50 be
       -0.10645112 -0.11294085 0.24526589 -0.20384604
0002a0 de a7 08 bc 91 60 d2 bc f2 00 fc 3d 99 c2 da 3d
       -0.008340804 -0.025680812 0.12304868 0.10681648
0002b0 08 1f a0 be 97 79 cc bd f3 c8 5e 3e 29 12 69 ba
       -0.31273675 -0.09984129 0.21756344 -0.00088909507
0002c0 a0 40 f5 3d 16 d8 1d 3e e7 51 2d bc 1d 08 bc bc
       0.11975217 0.15414461 -0.010578609 -0.022953087
0002d0 b1 8a 88 3d 58 ef c0 3d 63 8b 84 be c2 aa 3a be
       0.06667078 0.09420651 -0.25887594 -0.18229201
0002e0 6f cb ef 3d 19 82 73 3e d8 b5 0c bd 9d fe 4f be
       0.11708724 0.23780097 -0.034353107 -0.20311971
0002f0 e2 5f 3f 3e 3f 90 1c 3e 5b b1 bc 3d 6b b7 b0 3d
       0.1868892 0.152894 0.09213515 0.08628734
000300 48 b2 42 3d d3 ef 6c 3e fc fc e8 3d a6 b6 e5 3c
       0.047533303 0.2313836 0.11376378 0.028041195
000310 05 42 c4 bd 41 60 1d 3d 9e 41 c1 3d 55 23 16 bd
       -0.09582905 0.038421873 0.094363436 -0.03665479
000320 4b bd d3 bd cf 2b 44 3e 2f 79 11 be fb 1e 84 bd
       -0.10338839 0.19157337 -0.14206384 -0.064512216
000330 10 cc 4a 3e be 7b cc 3c 56 ec 25 be d4 1b 83 3d
       0.19804406 0.024961349 -0.16203436 0.06401792
000340 31 d8 66 bc 7e de c2 3d a6 f8 ef 3d 51 29 08 be
       -0.01408963 0.09515093 0.11717348 -0.13297011
000350 64 8b 82 3d 43 67 cf 3d ef 55 65 3e 28 0b 70 bc
       0.06374243 0.101271175 0.22396062 -0.014651097
000360 9f 41 24 3e 5e 0b 40 3e 26 49 05 3e 73 c6 1d 3d
       0.16040657 0.18754336 0.13016185 0.038519334
000370 06 36 44 be da f5 36 3e fc 05 32 3c db 9e 54 3c
       -0.19161233 0.17867222 0.010865685 0.012977327
000380 c8 31 a1 bc a3 14 03 bd b3 cc e0 bd b3 12 14 3e
       -0.019677058 -0.032002103 -0.10976543 0.14460258
000390 63 7e 06 3e df d1 79 be eb af 72 be e5 5e d1 38
       0.1313415 -0.24396466 -0.2369992 9.983572e-05
0003a0 99 95 ad 3d 86 e7 fe bb f2 6e 65 3e 93 c6 b3 bc
       0.08475799 -0.0077790646 0.22405604 -0.021945274
0003b0 7c 02 9a be e2 30 59 3e fd f4 53 3e 83 de 4e 3e
       -0.3008002 0.21210054 0.20698924 0.20202069
0003c0 89 41 48 3e 4e 2d 5a be 26 3b a2 3b 33 ab 3b ba
       0.1955625 -0.21306345 0.0049508987 -0.00071589946
0003d0 fe 03 b4 3d d5 72 24 be 3c 4d db 37 15 4e 07 3e
       0.08789824 -0.1605943 2.61428e-05 0.1321338
0003e0 c8 20 1e 3c 35 24 4e 3e d7 a2 6f be 6d 93 d2 3d
       0.00965137 0.20131 -0.23401962 0.102820255
0003f0 8d 14 5d 3d 82 db 19 3c 3a 91 f8 3d 32 1f f7 bc
       0.053974677 0.009390714 0.12137075 -0.030166242

stateValueNet.state_final.weight f4 [1, 512]
000000 3d 13 9b 3c 3d 07 f9 3c 5f d2 de 3c 0f 8b a3 3b
       0.018930072 0.03039896 0.027199922 0.0049909423
000010 8f 19 7f 3c 13 1f 38 3c 73 ba bb bd 57 b7 82 3c
       0.0155700585 0.011237877 -0.09166422 0.015956564
000020 0f c8 78 3c e8 72 8b 3c 7a 7f 75 3c e1 ce 55 3c
       0.015184416 0.017022565 0.014984006 0.013049812
000030 dd 74 ad 3d 31 cc 85 3c 1b 96 52 3c db 20 3c 3c
       0.084695555 0.016332718 0.012853171 0.011482443
000040 b9 a1 21 3c 02 26 66 3c 7e c8 8f 3c 40 ad 37 3c
       0.009865218 0.014047148 0.017551657 0.01121074
000050 47 f1 3d 3c a8 3a 81 3c ae 6f d0 3b 9e 57 93 3c
       0.0115931695 0.01577504 0.0063609695 0.017986115
000060 fc 92 0a 3c 6c e9 08 3d 44 f5 23 be b1 08 4b 3c
       0.008457895 0.033425733 -0.1601153 0.012392209
000070 ba 53 7c 3c 1a 52 68 3c a1 a3 54 3c af f3 56 3d
       0.015400821 0.014179731 0.012978465 0.05247849
000080 2d c8 55 3c 97 9b 6b bd c6 fe 78 3c 49 c4 82 3c
       0.013048214 -0.05752143 0.0151974615 0.015962737
000090 1b 05 47 3c 8c 9a 4a 3c 37 e8 3f 3c d5 11 1d 3c
       0.012147213 0.012365948 0.011713079 0.009586771
0000a0 05 30 30 3c d8 66 34 3c 32 52 3a 3c 53 9b 70 3c
       0.010753636 0.011010848 0.011372136 0.01468547
0000b0 28 a9 92 3c bb 07 e9 3c e9 ee 40 3c 3a 02 6a 3d
       0.017902926 0.028446069 0.011775711 0.05713103
0000c0 0f 19 0a 3c 5a 82 1d 3c b0 32 88 3c 6c 58 05 be
       0.008428826 0.009613598 0.016625732 -0.13022012
0000d0 42 25 fa 3b 48 55 c1 3c 8a 22 6d 3c da fd 39 3c
       0.007633836 0.023600236 0.014473567 0.011352027
0000e0 8f 3a 4b 3c bb da 5b 3c d1 8e 22 3c 8f d1 5b 3c
       0.012404098 0.013418849 0.009921745 0.013416662
0000f0 3c 2e db 3c 48 4d 41 3c c4 a3 17 3c 61 be f5 3c
       0.026755445 0.01179821 0.009255353 0.029998006
000100 42 de 83 3c a9 b5 61 3c 5a 59 7a be 45 24 86 3c
       0.016097192 0.013776221 -0.24448147 0.016374717
000110 c3 94 58 3c 7a a5 75 3c 03 19 a7 3c eb f1 dc 3c
       0.013219061 0.014993066 0.020397669 0.026970824
000120 49 4c 4b 3c 20 72 27 3c 5d 77 51 3c 05 7b 96 3c
       0.0124083245 0.010220081 0.012784806 0.018369207
000130 ab 0f 30 3c 61 1c 34 3c 7a 71 7a 3c b4 ce b6 3c
       0.010745923 0.010993094 0.015285844 0.02231536
000140 40 91 8c 3c be 88 59 3c 22 f3 47 3c 23 ff 3e 3c
       0.017159104 0.013277231 0.0122039635 0.011657509
000150 8c a7 81 be 12 78 3f 3c 08 8f 5e 3c 58 4b 38 3c
       -0.2532314 0.011686342 0.013583906 0.011248432
000160 64 6e 2e 3c fe 04 1d be 30 48 1d 3c f5 76 81 3c
       0.010646436 -0.15333936 0.00959973 0.015803793
000170 f0 fe 4d 3d 1e 92 36 3c 57 c2 9f 3c 3a f2 db 3a
       0.050291955 0.0111432355 0.019501848 0.0016780563
000180 34 d4 61 3c 74 17 35 3c 22 30 46 bb 4e f6 22 3c
       0.013783503 0.011052955 -0.0030241092 0.009946419
000190 eb e3 11 3c 63 7f 06 3d ba e7 61 3c 87 58 5b 3c
       0.008904438 0.03283633 0.013788158 0.013387806
0001a0 fd eb 76 3c 5d 9f 6f 3c 5f 82 3f 3c 30 28 70 3c
       0.015070912 0.0146253975 0.011688798 0.014658019
0001b0 0c d4 63 3c ed e1 aa 3c 28 b7 4e 3c c6 69 68 3c
       0.013905536 0.020859683 0.01261691 0.014185375
0001c0 f0 6e b9 3c 00 47 b4 3b ee 2f d2 3d d7 bb 9b 3c
       0.022635907 0.005501628 0.10263048 0.019010467
0001d0 e4 ee e2 3c 25 57 87 3c 13 26 82 3c 46 97 57 3c
       0.027701803 0.016521046 0.015887296 0.013158625
0001e0 76 6f 79 3c fc 20 70 3c e2 8a d9 bb 3e b8 b0 3c
       0.015224328 0.014656302 -0.0066388706 0.021572229
0001f0 40 5f 39 3c 75 27 eb 3c 8b 6c 8a 3c 8a 17 3c 3c
       0.011314213 0.028705338 0.01689746 0.0114802215
000200 47 a7 8b 3c e4 9d 28 be f4 dd 21 3c 9a e4 33 3c
       0.017047537 -0.1646648 0.009879578 0.010979796
000210 e3 69 8a 3c 1c 5b 81 3c 4a 5d 78 3c 3b 72 6c ba
       0.016896194 0.015790515 0.015158961 -0.0009019707
000220 cd 2a 87 3d ce 32 79 3c fa 3c a2 3c 8e 82 88 3c
       0.065999605 0.015209867 0.019804467 0.016663816
000230 2d bf 6f bd 70 55 26 3c 16 84 df bd 35 d0 57 3c
       -0.05853193 0.010152206 -0.10913865 0.013172199
000240 ac f3 36 3c 03 1e 92 3d 99 04 b9 3c 38 f0 8a 3c
       0.011166494 0.071346305 0.0225852 0.016960248
000250 59 30 21 3d ec 08 49 3c 4f 1b 8a 3c f6 41 b3 3c
       0.03935275 0.012270194 0.016858725 0.021882039
000260 d6 aa 81 3c 08 dc 7f 3c 0b f1 70 3c 43 e0 83 3c
       0.015828531 0.015616424 0.014705907 0.016098147
000270 ca de 6d 3c d5 d7 2d 3c 56 c0 7c 3c 86 50 87 3c
       0.014518449 0.01061054 0.015426716 0.016517889
000280 ca 1b 64 3c 33 9c 99 3c ad 47 30 be aa 4a 90 3c
       0.013922641 0.01875124 -0.17214842 0.017613728
000290 a8 f1 9a 3c 7b 0d f2 3d 02 8b 8a 3c 3f 44 b9 bd
       0.018914059 0.118189774 0.016911987 -0.0904622
0002a0 6c fe 21 3c 1e c3 b7 3c 9d d2 25 3c 3e eb 4c 3c
       0.009887319 0.022431906 0.010121015 0.012507258
0002b0 82 26 5a 3d b6 2f bd 3c 01 64 5a 3c fa c1 14 3c
       0.05325938 0.02309404 0.013329507 0.009079451
0002c0 83 df 42 3c 20 58 85 3c ca fd 41 3c 3e 4b 51 3d
       0.01189411 0.016277373 0.011840293 0.051097147
0002d0 26 51 75 3c a7 2b 35 3c 1d 9f 36 be a9 64 30 bd
       0.014972961 0.011057771 -0.17834134 -0.043064747
0002e0 91 1e e3 3c a4 b9 4c 3c a5 73 7c 3d c8 03 52 be
       0.027724536 0.012495432 0.061633725 -0.20509255
0002f0 b9 dc 1b 3c ac 60 39 3c cc 4f 8e 3c f3 7d dd 3c
       0.009513074 0.011314552 0.017372034 0.027037596
000300 e6 b6 40 3c cf c0 4a 3c bc 6f 92 3c 64 55 6c 3c
       0.011762356 0.012375071 0.017875545 0.014424656
000310 1f 82 67 be 49 8c 07 3c 42 03 95 3c d3 4b 36 3e
       -0.22608231 0.008273193 0.01819003 0.17802362
000320 cd ff 05 be ae c1 2b 3c f1 5d eb 3c 2c 7c 64 3d
       -0.13085862 0.010483189 0.028731318 0.055782482
000330 03 1e 85 3c 75 42 2b 3c 34 28 b0 3c b4 41 8d 3c
       0.016249662 0.010452856 0.021503545 0.017243244
000340 5f 9e ef 3c 39 9d 52 3c 9b 2f 7c 3c 96 7c 17 3d
       0.029250322 0.012854868 0.015392209 0.03698405
000350 36 4f 58 3c 84 69 46 3c eb 9e 85 3c b4 cb 93 bc
       0.013202479 0.012110118 0.01631113 -0.01804147
000360 21 d1 57 3c d0 92 44 3c 1a b9 ab 3c eb 87 21 3d
       0.013172419 0.011997893 0.020962287 0.039436262
000370 30 aa 18 be 23 38 51 3c 54 a9 1e 3c 5b 35 5c 3d
       -0.14908671 0.012769732 0.009683926 0.05376182
000380 fc 1a 60 3c 96 7f 2a 3c c5 46 3a 3d f6 90 86 3c
       0.013678309 0.010406395 0.045477647 0.016426545
000390 a9 6e 82 3c 65 d5 33 3d f9 e0 53 bb ac 7e 86 be
       0.015921907 0.04390468 -0.003233014 -0.26268518
0003a0 33 8b 98 3c 2f 31 a1 3c 0a fa 4c 3c 28 e5 53 3c
       0.018621063 0.019676773 0.012510786 0.012933053
0003b0 0d 70 0f be bb b4 7d 3c 83 ac 1a 3c 45 48 76 3c
       -0.14007588 0.015484984 0.009440544 0.015031879
0003c0 34 bc 9d 3c 12 cd 9a bd 2e 7a 64 3c 1f 87 48 3c
       0.019254781 -0.07558645 0.0139451455 0.012239247
0003d0 b1 59 1c 3c f6 7e b9 bd 65 d1 5a 3c fd 21 66 3c
       0.0095428685 -0.09057419 0.013355588 0.014046189
0003e0 53 f8 6e 3c 0d 72 60 3c 42 0a 9c 3d 1a 9a 1e 3c
       0.014585572 0.013699067 0.07619144 0.009680295
0003f0 a2 a9 56 3c 1f 5a 95 3c 4a 0b 44 3c 16 0f a0 3b
       0.013101967 0.01823145 0.011965582 0.004884611
